app/src/main/assets/model.tflite (tflite, 531280 bytes, 8 tensors)

arith.constant f4 [8]
0	0xbc3bd87b	-0.011465187
1	0xbd058629	-0.03259865
2	0xbc4c5775	-0.012472023
3	0xbcdedd7e	-0.027205225
4	0xbcf34d70	-0.029700011
5	0x3d811933	0.063036345
6	0xbd281841	-0.041038755
7	0xba138cdf	-0.00056285964

arith.constant1 f4 [16]
0	0xbc3076ed	-0.010770542
1	0xbc93b9f4	-0.018033005
2	0xbc7c57ed	-0.0154018225
3	0xbcd5639b	-0.026048472
4	0x3ca4e2d1	0.020127686
5	0x3b477113	0.0030432388
6	0x3d0611c1	0.032731775
7	0x3c12aa7d	0.00895178
8	0x3da2c684	0.0794802
9	0xbd281132	-0.041032024
10	0xbbdc816e	-0.0067292964
11	0xbcb1cf4b	-0.02170529
12	0x3be93367	0.0071167233
13	0xbb027689	-0.0019907078
14	0xbd48fdf7	-0.049070325
15	0xbccafd09	-0.02477886

arith.constant3 f4 [8, 1, 3, 16]
0	0x3e8b02d2	0.2715059
1	0xbec52501	-0.38504794
2	0x3dac7019	0.084198184
3	0x3cd1d0f7	0.025612338
4	0xbe4afdfe	-0.19823453
5	0x3dded989	0.10881335
6	0xbe65ae33	-0.22429733
7	0x3d82c7de	0.06385778
8	0xbd21accc	-0.039471433
9	0x3e082797	0.13296352
10	0xbf180da3	-0.5939581
11	0x3e97e977	0.29670307
12	0xbd5ab00e	-0.053390555
13	0xbe87c9c5	-0.26521125
14	0xbea8ba8a	-0.32954818
15	0xbeb245ea	-0.34818965
16	0x3e734816	0.23757967
17	0x3c8a8e5c	0.016913585
18	0x3e8b30a6	0.27185553
19	0x3e896675	0.2683598
20	0x3d4166e1	0.047217254
21	0x3d901e61	0.07037044
22	0x3e7e584f	0.24838375
23	0xbde235bb	-0.110454045
24	0x3e5e1487	0.21687518
25	0xbe4a6604	-0.19765478
26	0xbddc9f51	-0.10772575
27	0xbe6b0ed9	-0.22954883
28	0xbe257e15	-0.16161378
29	0xbdfdc4bb	-0.12391039
30	0xbe6c75b9	-0.23091783
31	0xbe93a9db	-0.28840527
32	0x3e874f26	0.26427573
33	0xbcb16356	-0.021653812
34	0xbe1aa411	-0.15101649
35	0xbd3b70cc	-0.04576187
36	0xbe3656f5	-0.17806609
37	0x3e5ea2c6	0.2174178
38	0x3e1cda3c	0.15317625
39	0x3cc664ee	0.024218049
40	0x3ccefb65	0.025266359
41	0xbe4b9275	-0.19880088
42	0xbd8d844f	-0.069100015
43	0x3e85a467	0.26101992
44	0xbd3bb447	-0.045826223
45	0x3c733c45	0.014845912
46	0x3e660db0	0.22466159
47	0x3e209443	0.15681557
48	0x3e3e09a5	0.18558367
49	0x3e91fd3d	0.28513518
50	0x3ea4a5b3	0.32157668
51	0xbcc66e74	-0.02422259
52	0xbd7ae8b0	-0.061257064
53	0xbe7ec33f	-0.24879168
54	0xbe20aa2b	-0.15689914
55	0xbda58c39	-0.08083386
56	0xbdcc3abb	-0.099721394
57	0x3e49eb62	0.19718698
58	0x3eab8f10	0.33507586
59	0x3e5987e1	0.2124324
60	0xbdfb22c2	-0.12262489
61	0x3eb5044c	0.3535484
62	0x3e0f4c50	0.13993955
63	0x3d8e2409	0.06940467
64	0x3e25a83a	0.16177455
65	0x3ba00cfd	0.004884361
66	0x3e3fc4f2	0.18727472
67	0x3e869336	0.26284188
68	0x3e6da69f	0.23208092
69	0x3e0c7365	0.13715895
70	0x3cca14e8	0.024668172
71	0xbd415e87	-0.04720929
72	0xbc995213	-0.018715894
73	0x3e084ef1	0.13311364
74	0x3edf5c2d	0.43625012
75	0x3e3a363b	0.1818475
76	0x3dcbc67c	0.09949967
77	0x3eb1a86a	0.34698802
78	0x3e95793f	0.29194066
79	0xbdc41b82	-0.09575559
80	0x3e09ef53	0.13470201
81	0x3e9d3669	0.30705574
82	0xbda87e21	-0.08227182
83	0xbe86c92c	-0.26325357
84	0xbe1b5841	-0.15170385
85	0x3e81dcc4	0.25363743
86	0x3cd181f3	0.02557466
87	0x3d89ecac	0.06734595
88	0xbda5c607	-0.08094411
89	0xbd01875d	-0.031623233
90	0x3f02ef63	0.51146525
91	0xbe1f8ec4	-0.15581805
92	0xbe4d0cd7	-0.2002443
93	0x3db0581b	0.08610555
94	0xbdecbca1	-0.115594156
95	0x3dfac1af	0.122439735
96	0xbe5712b2	-0.21003225
97	0x3da92b99	0.08260269
98	0xbe45ed62	-0.19328836
99	0x3e0ddbd3	0.13853388
100	0x3d1d2c8c	0.03837256
101	0xbecf2b2e	-0.4046263
102	0xbe584840	-0.21121311
103	0xbd4d00f8	-0.050049752
104	0xbe55b5c7	-0.20870124
105	0x3d1555f3	0.03645892
106	0xbd1f9a73	-0.038965654
107	0xbeabbee7	-0.33544084
108	0xbe1832df	-0.14863156
109	0xbdddb3a4	-0.10825279
110	0x3e9a006e	0.30078453
111	0x3e3dc2e0	0.1853137
112	0xbe7da64b	-0.24770467
113	0xbd2c2b01	-0.0420332
114	0x3da49484	0.080361396
115	0xbe97efa4	-0.2967502
116	0x3dbcb575	0.09214298
117	0xbe036f32	-0.12835386
118	0xbe69dfb3	-0.2283924
119	0x3e7bde10	0.24596429
120	0xbab87d18	-0.0014075367
121	0x3d86793a	0.06566091
122	0x3d9f4826	0.07777433
123	0x3de1a541	0.11017848
124	0x3e3ec2a4	0.18628937
125	0x3e11ae54	0.14226657
126	0xbd75ae98	-0.05998096
127	0x3e088a69	0.1333405
128	0x3e1bc276	0.152109
129	0x3d002b58	0.031291336
130	0x3e00994c	0.12558478
131	0x3d140418	0.036136717
132	0xbd85977f	-0.06523036
133	0xbea5733a	-0.32314473
134	0x3c5ff230	0.013668582
135	0x3dfc580e	0.123214826
136	0xbeb5d37d	-0.35512915
137	0x3d7ec0d1	0.062195603
138	0xbed8aa93	-0.42317638
139	0xbeb0f55d	-0.34562197
140	0x3e139029	0.14410461
141	0xbdc30f5e	-0.095244154
142	0xbe197e08	-0.14989483
143	0x3e8dd0b1	0.2769828
144	0xbcba6945	-0.022755275
145	0x3ddf5104	0.109041244
146	0x3e93e970	0.28889036
147	0xbe81855b	-0.25297055
148	0x3e579dab	0.2105624
149	0xbe031ac1	-0.12803175
150	0x3ebe9e4d	0.3723015
151	0x3e8578d5	0.2606875
152	0xbd915113	-0.07095542
153	0xbdc1f245	-0.09470037
154	0x3f10a239	0.5649753
155	0xbde4ef5e	-0.11178468
156	0x3e86ab9a	0.26302797
157	0xbe859a1c	-0.2609414
158	0xbd0a3850	-0.03374511
159	0x3e4b1ef4	0.19836026
160	0xbdf1d113	-0.11807456
161	0x3e0dbc5e	0.13841388
162	0x3e19f55e	0.15035006
163	0xbd997cca	-0.07494505
164	0x3d96b438	0.07358593
165	0x3e47c74c	0.1950962
166	0xbda44edb	-0.08022853
167	0xbe4a39b0	-0.19748569
168	0x3e822917	0.25421974
169	0xbdaf3dfa	-0.08556743
170	0x3e5e416d	0.21704645
171	0x3cc18c47	0.02362646
172	0xbe56594f	-0.20932506
173	0xbe135c25	-0.14390619
174	0xbe5c1f7a	-0.21496382
175	0xbe666ad0	-0.22501683
176	0x3e863951	0.26215604
177	0x3db2770b	0.08714112
178	0x3d4c8626	0.04993262
179	0x3ea5db9e	0.32394117
180	0xbdf8b2c2	-0.1214347
181	0xbe5bb2c9	-0.2145492
182	0xbe7cbed5	-0.24682172
183	0xbe36d829	-0.17855896
184	0xbdefeca5	-0.11715058
185	0x3db4c33e	0.08826302
186	0x3f18ddca	0.59713423
187	0x3dd3cf6d	0.10342298
188	0xbdbef368	-0.0932377
189	0x3e0fbfcc	0.14038008
190	0x3eafaec6	0.3431303
191	0x3df30702	0.11866571
192	0x3d2f6d02	0.042828567
193	0x3e97c897	0.29645225
194	0x3dcf941c	0.101356715
195	0xbe0790fa	-0.13238898
196	0x3cf24c2b	0.029577335
197	0x3e6a8973	0.22903995
198	0xbea7a7f2	-0.3274532
199	0xbe308f1e	-0.17242095
200	0xbd9989ad	-0.07496963
201	0x3e0f48a6	0.13992557
202	0x3ede16d3	0.43376788
203	0x3e2f83c9	0.17140116
204	0xbdf4ad12	-0.11947073
205	0x3e5fe591	0.21864916
206	0x3e4d2d15	0.20036729
207	0xbdd3fcbe	-0.10350941
208	0x3e5712d7	0.2100328
209	0x3e456923	0.19278388
210	0x3d7c43d3	0.06158812
211	0x3e48d6ff	0.19613265
212	0xbe8854d6	-0.26627225
213	0x3e20562b	0.1565787
214	0xbb812bf1	-0.003942006
215	0xbd3fcdf2	-0.046827264
216	0x3df75c57	0.12078159
217	0xbe07cc56	-0.13261542
218	0x3f27b497	0.65509933
219	0xbc95daa0	-0.018292725
220	0x3e32ed20	0.17473269
221	0x3e575bac	0.21031064
222	0x3e83d74c	0.25750196
223	0x3ceb9d46	0.028761517
224	0x3dfe8c34	0.124290854
225	0xbdd8a91b	-0.10579129
226	0xbd5f4471	-0.05450863
227	0x3d90e7f6	0.07075493
228	0x3e649a35	0.2232445
229	0x3e9042d1	0.28175977
230	0xbcc3295c	-0.023823433
231	0xbe36ebf9	-0.17863454
232	0xbe183fc3	-0.14868073
233	0x3d1d4797	0.03839835
234	0x3eca9016	0.39563054
235	0x3c811e4c	0.015761517
236	0x3e666689	0.22500052
237	0x3d77c5e2	0.06049145
238	0xbd2db2b1	-0.04240674
239	0x3ead8db3	0.3389717
240	0xbe9a5fbd	-0.30151168
241	0x3e70fc9d	0.23533864
242	0xbd9e0925	-0.07716588
243	0xbd12b9df	-0.03582179
244	0xbd595a6a	-0.05306474
245	0xbddc9595	-0.10770718
246	0xbe7e4e69	-0.24834599
247	0xbe177c03	-0.147934
248	0x3e34cac9	0.17655481
249	0x3ebe0b9d	0.37118235
250	0xbe51d866	-0.20492706
251	0xbe15fc34	-0.14646989
252	0x3df42a45	0.11922125
253	0xbdd639cb	-0.10460242
254	0x3b3a16cb	0.0028394933
255	0x3e8a21dd	0.2697896

arith.constant4 f4 [16, 1, 3, 3]
0	0xbe8d9d38	-0.2765901
1	0x3df62919	0.120195575
2	0x3cda2617	0.02662949
3	0xbe385b2c	-0.1800353
4	0xbe5320c8	-0.20617974
5	0xbe82a06e	-0.25513023
6	0x3eaafbaf	0.33395144
7	0x3e7df87d	0.24801822
8	0xbe72d494	-0.23713905
9	0x3e899eea	0.26879054
10	0x3e16673e	0.14687821
11	0x3ec64860	0.38727093
12	0x3e92ff47	0.28710386
13	0xbe301df7	-0.1719893
14	0xbe4ac704	-0.19802481
15	0xbe3c331e	-0.18378875
16	0xbbef8d71	-0.0073105623
17	0xbe7e34c4	-0.24824816
18	0x3e9bcafd	0.30428305
19	0xbddca5d9	-0.107738204
20	0x3d897a24	0.067127496
21	0xbda0f0c0	-0.078584194
22	0x3e4bb02b	0.19891421
23	0x3e638d37	0.22221838
24	0xbe41d104	-0.1892739
25	0xbd07bf30	-0.033141315
26	0xbdae8299	-0.08521003
27	0xbee08076	-0.43848008
28	0x3ea186ff	0.31548306
29	0x3bf025c9	0.007328723
30	0xbec239c4	-0.37934697
31	0xbdb90212	-0.09033598
32	0x3e4ec703	0.20193104
33	0xbdc943c0	-0.098273754
34	0xbe7e0181	-0.24805261
35	0x3ea957d5	0.33074823
36	0xbb916d6a	-0.004438092
37	0xbd724536	-0.059148036
38	0xbe038fc7	-0.12847815
39	0xbe36784a	-0.17819324
40	0xbbcea0d6	-0.006305794
41	0xbe0758e0	-0.13217497
42	0xbe22f806	-0.15914926
43	0xbdd521ea	-0.10406859
44	0xbe1880ca	-0.14892879
45	0xbcf42817	-0.029804273
46	0xbd190408	-0.03735736
47	0xbe9df10e	-0.30847973
48	0x3db79937	0.0896477
49	0xbdf222eb	-0.11823066
50	0xbe5b1a74	-0.2139681
51	0xbe424dc3	-0.18974976
52	0xbcfa1f75	-0.030532578
53	0xbed22226	-0.41041678
54	0x3e383727	0.17989789
55	0xbea86474	-0.3288914
56	0xbc346065	-0.01100931
57	0x3d8fe8b0	0.070268035
58	0x3d4fb849	0.050712857
59	0x3e5bf58e	0.2148039
60	0xbeb2eb18	-0.34944987
61	0x3e8e3dd8	0.27781558
62	0xbe946186	-0.28980654
63	0x3dba5b10	0.090994
64	0xbdb5b2e0	-0.08872008
65	0xbe40bd6d	-0.1882226
66	0x3e939187	0.28821966
67	0x3d620d7a	0.055188634
68	0xbe814ddb	-0.25254712
69	0x3d533dfe	0.051572792
70	0xbe940500	-0.28910065
71	0xbdf561da	-0.11981554
72	0xbdb860cd	-0.09002838
73	0x3e050314	0.12989455
74	0xbe3d1b41	-0.18467428
75	0x3da80776	0.08204548
76	0x3e59c51e	0.212666
77	0x3de8ae01	0.113613136
78	0xbed9818d	-0.42481652
79	0x3d087f48	0.03332451
80	0x3dcec166	0.100954816
81	0xbe00d5bd	-0.12581535
82	0x3e99dacb	0.30049738
83	0xbd9a11b0	-0.07522905
84	0x3e95ed87	0.2928278
85	0x3d64e031	0.055877868
86	0xbeb13c98	-0.34616542
87	0x3e2186a6	0.1577402
88	0x3e54be93	0.20775823
89	0x3e0cd41e	0.13752791
90	0x3d3a27d6	0.045448147
91	0x3eb6e8af	0.35724398
92	0x3e7d7107	0.24750148
93	0xbd964a15	-0.07338349
94	0x3d943604	0.07236865
95	0xbe16635f	-0.14686345
96	0x3b878b0a	0.004136448
97	0xbed2676a	-0.41094524
98	0xbdd7ed8e	-0.10543357
99	0x3d8e73e6	0.069556996
100	0x3ea13be5	0.31491008
101	0x3e1a30c7	0.1505767
102	0xbe9ecef1	-0.3101726
103	0x3e7773d0	0.24165273
104	0x3e57138a	0.21003547
105	0x3d8efa76	0.069813654
106	0xbe95be5e	-0.292468
107	0x3e07c00a	0.13256851
108	0x3e436ac2	0.19083694
109	0xbea71491	-0.32632878
110	0x3be2bf20	0.0069197565
111	0x3e916e9d	0.28404704
112	0x3e4a6d75	0.19768317
113	0xbdd57790	-0.10423195
114	0x3da7c27c	0.08191392
115	0xbd8b6018	-0.06805438
116	0xbe0649b0	-0.13114047
117	0xbe9bccc4	-0.3042966
118	0x3ecc94cf	0.39957282
119	0xbe7e2af9	-0.2482108
120	0x3e904534	0.28177798
121	0xbd21d11d	-0.039506067
122	0x3e909d82	0.2824517
123	0xbdb852f8	-0.090002
124	0xbe9dce98	-0.3082168
125	0x3c468728	0.012117185
126	0xbdbecbd9	-0.093162246
127	0xbe641c82	-0.222765
128	0xbd9ee2e7	-0.07758122
129	0xbe3666b5	-0.17812617
130	0x3e96814c	0.2939552
131	0xbdff1c63	-0.12456586
132	0xbcea7d40	-0.028624177
133	0x3e56b6f0	0.20968223
134	0x3e37ba44	0.17942148
135	0x3e8a3a95	0.2699782
136	0xbf06e6df	-0.5269603
137	0xbe150fb8	-0.14556777
138	0xbdb3500c	-0.08755502
139	0xbe08291a	-0.13296929
140	0x3df83889	0.12120158
141	0x3e624942	0.22098258
142	0x3d1c60dd	0.038178314
143	0x3e21182b	0.15731876

arith.constant5 f4 [3, 64]
0	0xbec93eba	-0.3930567
1	0x3ea4923a	0.32142812
2	0xbeb757fb	-0.3580931
3	0xbed3164f	-0.41227958
4	0x3e8fcf32	0.28087765
5	0x3e8bca27	0.27302667
6	0x3e965915	0.2936484
7	0x3e2426e0	0.16030455
8	0xbd822f60	-0.06356692
9	0xbed39a3d	-0.41328612
10	0xbe3fb23c	-0.18720335
11	0x3e2cc297	0.16871105
12	0xbe3b53cb	-0.18293683
13	0xbebc42d1	-0.36769727
14	0xbebbd997	-0.36689445
15	0x3e60da0e	0.21958181
16	0x3e809200	0.2511139
17	0xbdba5c14	-0.09099594
18	0x3e592d31	0.21208645
19	0x3e6d7dad	0.23192473
20	0xbcd81302	-0.026376251
21	0xbeed15dd	-0.46305743
22	0x3e30b7ba	0.17257586
23	0x3e53c684	0.20681196
24	0xbd8d99e3	-0.06914117
25	0xbe97f406	-0.29678363
26	0x3e54eb8a	0.20792976
27	0xbe8d982f	-0.2765517
28	0x3eeebe44	0.46629536
29	0xbeb3e863	-0.35138234
30	0xbe982119	-0.29712752
31	0x3db301d5	0.08740584
32	0x3dfef2fe	0.12448691
33	0x3ddfaa3e	0.10921143
34	0x3e3a4218	0.18189275
35	0xbd2160fb	-0.03939913
36	0x3dd56a50	0.10420668
37	0x3e393e65	0.18090208
38	0x3eb98346	0.36232966
39	0xbd5ad7b2	-0.05342836
40	0x3ead4fb3	0.33849868
41	0x3eb07a08	0.34468102
42	0x3de46d74	0.11153689
43	0x3e45a8c2	0.19302657
44	0x3e88909c	0.26672828
45	0xbe832c17	-0.25619575
46	0x3e710793	0.23538046
47	0xbeeddf1d	-0.46459284
48	0x3d85663c	0.0651364
49	0xbe817ed7	-0.25292084
50	0x3e4cc191	0.19995715
51	0x3eec3451	0.46133664
52	0xbe84f584	-0.25968564
53	0xbe6162e3	-0.22010379
54	0xbeed55cf	-0.4635453
55	0x3e3cdd04	0.18443686
56	0xbed3c488	-0.4136088
57	0xbe82fc44	-0.25583088
58	0x3ee0a32c	0.4387449
59	0x3ede23fa	0.43386823
60	0xbeb2a186	-0.34888858
61	0x3e4ee4cb	0.20204465
62	0xbbfb3cc8	-0.007667158
63	0x3eacda50	0.3376031
64	0xbd6db646	-0.058035158
65	0xbdd5dd31	-0.104425795
66	0x3ed71665	0.42009273
67	0x3e2f63b7	0.17127882
68	0xbe8ca80f	-0.2747197
69	0x3e0f6cd3	0.14006357
70	0xbebe3937	-0.37153026
71	0x3e5e68a9	0.21719612
72	0x3e82fff3	0.255859
73	0x3e9013fd	0.2814025
74	0xbe3b8ab0	-0.18314624
75	0xbeca7b2a	-0.39547092
76	0x3ecb1027	0.3966076
77	0x3dbaf717	0.0912916
78	0x3e433a90	0.19065309
79	0xbe42c41a	-0.1902012
80	0xbed07fac	-0.40722406
81	0x3e99981d	0.29998866
82	0xbb3e5fb3	-0.002904874
83	0x3e706d7a	0.23479262
84	0xbd157db2	-0.036496826
85	0xbe473ebe	-0.19457528
86	0xbe5463aa	-0.20741144
87	0xbe90f72a	-0.2831357
88	0x3e139309	0.14411558
89	0xbcc21ecf	-0.023696331
90	0x3e44c4a5	0.19215639
91	0xbed59234	-0.41713107
92	0xbe4f2d3c	-0.202321
93	0x39acdd4b	0.00032971273
94	0x3e846e0e	0.25865215
95	0x3de9c0be	0.11413716
96	0x3e9a489a	0.30133516
97	0xbea44d8b	-0.3209041
98	0xbe13b586	-0.14424714
99	0x3e802ef6	0.25035828
100	0xbe914064	-0.2836944
101	0xbdd283b6	-0.10279028
102	0xbe51b522	-0.20479253
103	0x3e9217fa	0.28533918
104	0xbea3ea5e	-0.32014745
105	0x3e16e93e	0.14737412
106	0xbe77d3e6	-0.24201927
107	0xbe1e644c	-0.15467948
108	0x3e42044f	0.18946956
109	0xbe3e0be7	-0.18559228
110	0xbdde4967	-0.10853844
111	0x3e504249	0.20337786
112	0x3e44b539	0.19209756
113	0x3e924786	0.28570193
114	0xbdb6042a	-0.08887513
115	0xbeff1dc3	-0.49827394
116	0x3e3d6fed	0.18499728
117	0x3ebd570f	0.36980483
118	0xbc878bf3	-0.016546225
119	0xbe285aa0	-0.1644082
120	0xbcc2ac6b	-0.023763856
121	0x3e2b3fd5	0.16723569
122	0xbe451ee4	-0.19250065
123	0xbe63c0b1	-0.22241475
124	0x3dcdfc4d	0.10057888
125	0xbd9c5883	-0.0763407
126	0x3e43f9f2	0.19138315
127	0x3daa32f6	0.08310501
128	0x3e8428a8	0.25812268
129	0x3da586c6	0.080823466
130	0x3ec4e412	0.38455254
131	0x3e2979e5	0.16550405
132	0xbe4dd359	-0.20100154
133	0xbf05badb	-0.52238244
134	0xbe95888e	-0.29205745
135	0xbe4d5bf7	-0.20054613
136	0xbe9b8900	-0.3037796
137	0x3e6d1209	0.23151411
138	0x3d7be98b	0.06150202
139	0x3ee5fd09	0.44919613
140	0x3c0f3869	0.008741477
141	0xbca41ed1	-0.020034226
142	0x3cecb9b4	0.028897144
143	0xbe48287d	-0.19546695
144	0xbd338d59	-0.04383597
145	0xbe118f2a	-0.14214769
146	0xbf058eb0	-0.5217085
147	0xbed11ae9	-0.40840843
148	0xbee7140e	-0.45132488
149	0x3e2e21d1	0.17005087
150	0x3e853d78	0.2602346
151	0x3b522508	0.003206553
152	0x3c98d1e0	0.018654764
153	0x3e3216df	0.17391537
154	0xbe6a0e40	-0.22856998
155	0x3e9aec8d	0.302586
156	0xbdb7426f	-0.08948218
157	0x3ee1247b	0.43973145
158	0xbe57f534	-0.21089631
159	0x3e82e54c	0.25565565
160	0xbeb7d0be	-0.35901445
161	0x3e4344ea	0.19069257
162	0x3e9d9b1f	0.3078241
163	0xbdc7baac	-0.09752402
164	0x3e376913	0.17911176
165	0x3e65e76b	0.2245156
166	0xbd70ac66	-0.058758162
167	0x3e224f9d	0.15850683
168	0x3df917dc	0.12162754
169	0xbe612a56	-0.21988806
170	0xbe84ba36	-0.25923318
171	0xbe9474c2	-0.2899533
172	0xbebdc22d	-0.37062207
173	0x3d28eb3c	0.041239962
174	0xbd6825c1	-0.05667663
175	0x3e920bdf	0.28524682
176	0xbe33d495	-0.17561562
177	0x3ed4de89	0.4157603
178	0x3ec524a7	0.38504526
179	0xbe96f3ef	-0.29482982
180	0x3e5082ca	0.20362392
181	0xbdb21baf	-0.086966865
182	0x3d2b2484	0.04178287
183	0xbc305ef7	-0.010764829
184	0x3ea0f6f2	0.31438404
185	0x3dc7a7d8	0.097488105
186	0xbe5383aa	-0.20655695
187	0xbd122d5e	-0.035687797
188	0x3e3e0d58	0.18559778
189	0xbed8eb91	-0.42367223
190	0xbe731b88	-0.23740971
191	0xbefbf35d	-0.4920911

arith.constant6 f4 [64, 2048]
0	0xbd8acb69	-0.06777079
1	0x3cd4e7db	0.025989464
2	0xbcc13bce	-0.023588087
3	0x3dfda77e	0.12385462
4	0x3b152d4e	0.00227626
5	0x3d1cb1b6	0.038255416
6	0x3d672f56	0.056441627
7	0xbcc3113e	-0.023811933
8	0x3b535537	0.0032246837
9	0x3daa96e3	0.083295606
10	0x3b2ccf00	0.0026368499
11	0x3dd05853	0.101730965
12	0x3dd19414	0.10233322
13	0xbb827a67	-0.0039818767
14	0x3d90b465	0.070656575
15	0xbd1714b1	-0.036884967
16	0xbd159e5d	-0.03652798
17	0x3e194f53	0.14971666
18	0xbd740b9b	-0.05958138
19	0x3d306d90	0.043073237
20	0x3d71475a	0.058905937
21	0xbba49532	-0.0050226683
22	0x3b6f6b2d	0.0036532388
23	0xbd10a5df	-0.035314437
24	0x3c9b99c4	0.01899422
25	0x3d8a5158	0.06753796
26	0xbc33a1ba	-0.010963852
27	0x3d988423	0.07447078
28	0xbd410f81	-0.047133926
29	0x3cf0f406	0.029413234
30	0x3db3379b	0.0875084
31	0xbb663871	-0.0035128857
32	0xbd5329a0	-0.05155337
33	0x3d477246	0.048692964
34	0xbd2b7da0	-0.041867852
35	0x3e2a9c89	0.16661276
36	0x3d165cee	0.03670972
37	0x3c5dcf72	0.013538228
38	0x3dade5e0	0.08491111
39	0xbda90bc0	-0.08254194
40	0xbc82de05	-0.015975008
41	0x3c675d29	0.014121332
42	0xbb0294f7	-0.0019925216
43	0x3e3c9e54	0.18419772
44	0x3d1c036e	0.03808921
45	0xbd47013d	-0.048585165
46	0x3d85f3b4	0.06540623
47	0xbdc012d0	-0.09378588
48	0xbd9ce170	-0.07660186
49	0x3cac4e4a	0.021033425
50	0xbcf0ea4c	-0.029408596
51	0x3e318bac	0.17338437
52	0xbc46aeea	-0.012126664
53	0xbd6a12f6	-0.05714699
54	0x3d1149c2	0.03547073
55	0xbd277cb5	-0.040890414
56	0x3bd74846	0.006569895
57	0x3c23eb3c	0.010004815
58	0x3d3b765d	0.045767177
59	0x3cecbc0e	0.028898265
60	0x3dd6f594	0.10496059
61	0x3d48e953	0.04905064
62	0xbb8316b9	-0.0040005115
63	0xbd6ade00	-0.057340622
64	0x3b41beb7	0.0029563138
65	0xba39a50a	-0.00070817827
66	0x3ce1ebea	0.027578313
67	0x3cbd72af	0.023125974
68	0xbce31449	-0.027719634
69	0x3c9f6f3a	0.019462217
70	0x3d82e095	0.06390492
71	0xbcb61414	-0.02222637
72	0x3d015f03	0.03158475
73	0x3da045ca	0.07825811
74	0xbd0419e1	-0.032251243
75	0x3dcb13be	0.09915875
76	0x3c43692d	0.011926931
77	0xbbd90a3e	-0.0066235354
78	0x3ddd9560	0.10819507
79	0xbb782c9d	-0.0037868388
80	0xbd87fab2	-0.06639613
81	0x3d1193a1	0.03554118
82	0x3cdde58a	0.027086992
83	0x3dd99451	0.10623992
84	0x3d8dc7c2	0.069228664
85	0xbc07f41d	-0.008297947
86	0x3d94082c	0.07228121
87	0xbd6763bc	-0.0564916
88	0x3d6b6452	0.05746872
89	0x3b5e888a	0.0033955895
90	0xba94af20	-0.0011343695
91	0x3d9e32a5	0.077245034
92	0x3d66d208	0.056352645
93	0xbcc30a36	-0.02380858
94	0x3d613b5a	0.054988243
95	0xbdcd1ed3	-0.10015645
96	0x3ae67f0b	0.0017585469
97	0x3c94999a	0.01813965
98	0x3ab2a60d	0.0013629809
99	0x3e28979d	0.16464086
100	0x3d5871fd	0.052843083
101	0xbcdb43f8	-0.026765808
102	0x3e199288	0.14997303
103	0xbd1473e9	-0.036243353
104	0x3bb311ec	0.005464783
105	0x3dd018cb	0.10160979
106	0x3c99363f	0.018702624
107	0x3e0a6e5e	0.13518664
108	0x3d26e0e4	0.040741816
109	0x3caa9b3c	0.020825975
110	0x3d849555	0.06473795
111	0xbd9dfd14	-0.077142864
112	0xbd81d64e	-0.063397035
113	0x3d86f9aa	0.065905884
114	0x3d2f364c	0.04277639
115	0x3d971046	0.07376151
116	0x3cbd6b0d	0.023122335
117	0x3c18f5f0	0.00933598
118	0x3cb4f1bb	0.022087922
119	0xbde689ce	-0.11256753
120	0x3d025813	0.031822275
121	0x3d393170	0.045213163
122	0x3be79e93	0.007068464
123	0x3da2d553	0.079508446
124	0x3c28f42e	0.010312123
125	0x3cff53e4	0.031167932
126	0xbc80f440	-0.015741467
127	0xbd9a3eb6	-0.075314924
128	0xbce664a5	-0.028124163
129	0x3d917c67	0.07103806
130	0x3d110324	0.035403386
131	0x3db8c6c1	0.09022284
132	0x3d38ff80	0.04516554
133	0x3cea7413	0.028619802
134	0x3d1759b8	0.036950797
135	0xbda85d27	-0.082208924
136	0x3c23ef50	0.010005787
137	0x3d4f9335	0.050677497
138	0x3d900e27	0.07033949
139	0x3cc8e166	0.02452154
140	0x3d3d85a5	0.04627003
141	0x3c8eb37a	0.017419565
142	0x3cfee7ce	0.031116392
143	0xbd1325fc	-0.035924897
144	0xbd66614c	-0.056245133
145	0x3d6568fa	0.056008317
146	0x3d2efa67	0.04271927
147	0x3e1ca443	0.15297036
148	0x3d110952	0.03540928
149	0x3d2e1354	0.0424989
150	0x3cd4ca0e	0.025975253
151	0x3b9888bb	0.0046549714
152	0xbc61db8d	-0.013785255
153	0x3e050e53	0.12993746
154	0x3d0a8ab1	0.033823673
155	0x3e0daa68	0.13834536
156	0x3d0d5aec	0.034510538
157	0x3d319723	0.043357026
158	0x3d4bc087	0.049744155
159	0xbda2837e	-0.079352364
160	0xbb892e10	-0.0041863993
161	0x3d630ed3	0.05543406
162	0x3c87fc08	0.01659967
163	0x3df30939	0.118669935
164	0x3dd6105c	0.10452339
165	0xbc7b4dc6	-0.015338367
166	0x3cc9cd4f	0.024634032
167	0xbc5ce2a1	-0.013481767
168	0x3ac1ebea	0.0014795039
169	0x3d57ead6	0.05271419
170	0x3c5816f2	0.013189064
171	0x3d862916	0.06550805
172	0x3cc9fdcb	0.02465715
173	0xbd247940	-0.040154696
174	0x3d9714ac	0.0737699
175	0x3d245e49	0.04012898
176	0x3c95463d	0.018221969
177	0x3de67c73	0.112542056
178	0xbd1e19cd	-0.038598824
179	0x3e42fcdc	0.1904177
180	0x3dc72fa9	0.09725887
181	0xbcf62d5f	-0.030050931
182	0x3d641e38	0.05569288
183	0x3cc8888a	0.02447917
184	0xbd0becd5	-0.034161408
185	0x3e07de7f	0.1326847
186	0x3c8bb757	0.017055197
187	0x3de07f86	0.10961823
188	0x3d4a8980	0.049447536
189	0xbb68e9e9	-0.0035539812
190	0x3d9d4908	0.07679945
191	0xbd9e79cf	-0.07738077
192	0x3cbbec57	0.022939844
193	0x3d947d44	0.07250455
194	0xbcf4d87c	-0.029888384
195	0x3e15347e	0.14570805
196	0x3d0521ec	0.032503054
197	0xbc8c989d	-0.017162615
198	0x3d64b0b8	0.055832595
199	0xbd467194	-0.04844816
200	0x3b36a97a	0.0027872012
201	0x3db2d39c	0.087317675
202	0xbd04359e	-0.032277696
203	0x3e200937	0.15628515
204	0x3d915c90	0.07097733
205	0x3af24138	0.0018482571
206	0x3d930790	0.07179177
207	0xbce42726	-0.027850699
208	0x3ce58d6a	0.028021533
209	0x3da8b31a	0.08237286
210	0xbc921d14	-0.017836131
211	0x3db2a931	0.08723677
212	0xbc6e3951	-0.0145400325
213	0x3cdb4c64	0.026769824
214	0x3d7068ff	0.058693882
215	0xbd3d5154	-0.04622014
216	0xbd6c060c	-0.057622954
217	0x3df3191a	0.11870022
218	0x39a447c3	0.00031333984
219	0x3df9428d	0.12170897
220	0x3d6f7fab	0.058471363
221	0x3cb94f70	0.022620887
222	0x3da8f2f3	0.08249464
223	0xbce4b556	-0.027918499
224	0xbd0ef921	-0.034905557
225	0x3d7ad753	0.061240505
226	0x3ce5353f	0.027979491
227	0x3b463a72	0.0030247238
228	0x3cc72a06	0.02431203
229	0xbd0067b4	-0.0313489
230	0x3bdb39d0	0.0066902414
231	0x3d37930e	0.044817977
232	0x3c71cc83	0.014758232
233	0x3bce6da3	0.006299691
234	0xbb9b6fdf	-0.0047435607
235	0x3e08d2b2	0.13361624
236	0x3d58028b	0.0527368
237	0x3cadf332	0.021234129
238	0x3c83cf3f	0.016090034
239	0xbd55f04f	-0.05223113
240	0xbccb7182	-0.024834398
241	0x3dcbef15	0.09957711
242	0x3d4b0517	0.0495654
243	0x3de032fa	0.10947223
244	0xbbe6b109	-0.007040147
245	0xbd509542	-0.050923593
246	0x3df14f7b	0.11782738
247	0x3ceeac1a	0.029134799
248	0xbc75b11f	-0.014995842
249	0x3d747bc6	0.059688352
250	0xbc9cd64b	-0.019145152
251	0x3e319687	0.17342578
252	0x3d583135	0.052781302
253	0x3ceb8573	0.028750157
254	0x3d92c1a3	0.071658395
255	0x3ccf7942	0.025326375

arith.constant7 f4 [3]
0	0x3cc49d75	0.024000863
1	0x3d191a9d	0.037378896
2	0xbd81cfea	-0.063384846

arith.constant8 f4 [64]
0	0xbc8fa6f0	-0.017535657
1	0x3cef1f57	0.029189749
2	0x3adbc1e8	0.0016766163
3	0x3bdaeaaa	0.006680806
4	0x3cfa3f55	0.030547777
5	0x3d965be1	0.07341743
6	0x3d83004b	0.0639654
7	0x3db13a73	0.086537264
8	0x3d6f4d7b	0.0584235
9	0x3ad2095e	0.001602452
10	0xbc54dad1	-0.012991623
11	0xbd3d71e1	-0.04625118
12	0x3d494e1c	0.049146757
13	0x3d010cb8	0.03150627
14	0x3c869391	0.016427787
15	0x3cdb64fd	0.026781553
16	0x3c883c62	0.016630355
17	0x3d26058b	0.04053263
18	0x3d9032f4	0.070409685
19	0x3da8a2ab	0.082341515
20	0x3dd361a8	0.10321361
21	0xbca01aa2	-0.01954395
22	0xbca35729	-0.019939022
23	0x3c217ed4	0.009856898
24	0xbc8db40a	-0.017297763
25	0xbc8554c8	-0.016275778
26	0x3dd01591	0.101603635
27	0xbd45d65f	-0.048300143
28	0x3d0d332a	0.034472622
29	0xbc8e826a	-0.01739617
30	0x3d1ab043	0.037765753
31	0xbc197bb1	-0.009367869
32	0x3d901bf3	0.07036581
33	0xbccab3ed	-0.024743998
34	0xbcb74d75	-0.022375802
35	0xbba9a806	-0.0051775007
36	0xbc2e935d	-0.010655251
37	0xbbeb3617	-0.007178079
38	0x3d05013d	0.032471884
39	0x3cfa9ce1	0.030592384
40	0x3c3c9ec1	0.011512459
41	0x3d811d0f	0.063043706
42	0x3d28f0d0	0.04124528
43	0x3d1c5737	0.038169112
44	0x3db0e0a6	0.08636598
45	0xbc165460	-0.00917539
46	0x3cc26d2c	0.023733698
47	0xbad961b0	-0.0016584899
48	0x3d8a9809	0.0676728
49	0xbc55c16b	-0.013046603
50	0xbd2c5b2d	-0.04207914
51	0x3d57d0c4	0.05268933
52	0xbc152262	-0.009102436
53	0x3d0fb0ae	0.035080604
54	0xbb91609c	-0.0044365656
55	0xbc8e048d	-0.017336154
56	0xbc4e919a	-0.012607956
57	0x3c983635	0.018580535
58	0x3d85f156	0.06540172
59	0x3d1e6169	0.038667116
60	0xbafdbd63	-0.001935881
61	0x3d623a32	0.05523128
62	0x3d7e1b75	0.062037904
63	0x3d99b9d2	0.075061455
